data.pth (torch, 5271 bytes, 6 tensors)

l1.weight f4 [8, 59]
00000000: 1516 2ebd 10b7 c03d b409 cd3e c596 2fbe
00000010: ded4 553e 86d6 c23e e38d 843e 2c77 f73e
00000020: b0f7 0e3f c1a3 29be de4c 9f3e 426e 54be
00000030: 1e00 90be a3e0 e53e 734b 02be aeaa 8c3e
00000040: 33b6 89be add6 96bd 67f2 a53e 0fbb ddbd
00000050: f2f5 8fbe fceb 2cbe 9df2 8fbe d6ef 8fbe
00000060: 6203 34bf 082a 9f3e a441 f7bd 36f2 aa3d
00000070: b857 d03e 16e9 833e d18e 9e3e 3673 6ebe
00000080: 501e 95bc b56b afbc fca7 db3e 7f14 893e
00000090: c072 83bb 1989 24be da58 873e 1f40 173f
000000a0: c53e c53e cfa0 9a3e 02f8 37be 2094 653d
000000b0: 2ae8 ebbd d033 a73e 8ed2 963c 097a a93e
000000c0: 00b9 7d3e 9717 ebbe aecd 8ebd a970 08be
000000d0: a884 353c 9d66 59bd 2b94 b3bd a00c 47be
000000e0: cdf3 a1bd 175c d53e 1d8e 9d3e 1760 8cbe
000000f0: 21d6 a1be b52d 823e 5d14 b83e eb3e ec3e
00000100: c470 5f3f d551 9e3e 49cf 793e bc8a fa3d
00000110: 414c 083f 330d 493e 6381 d83e 38ee 86be
00000120: 346e 9c3e 7c7f bdbe 20ac 67be 834f dcbe
00000130: 7950 d73e 6f4c 4a3f 8cb0 e33e 1b7f 113f
00000140: 20eb 27be 82fc 143f 522e 2c3f 1a7b 113e
00000150: 8dee b93d ed18 0a3f a33e 173f 5c08 5fbe
00000160: daf5 a93e 2306 6dbe 4c2b e93e 5812 a6be
00000170: f822 663d 6527 a93e 6f60 d8bd d401 f13e
00000180: 2cef 63be 361b 0f3f cc34 833e 94b8 923e
00000190: ab20 0f3e 9965 1f3f 6aba 2c3f eef0 86be
000001a0: 365c e1bd 5c8d a93e 153f 8c3d 4f09 0cbd
000001b0: 8bee 23bf 1afd 40be b1b3 0c3f 04f6 d23e
000001c0: d300 f23e ae2e 453f 5ed7 68be f937 f33e
000001d0: 5f9c 083e 30af 253e b8ab 753e 5c20 16be
000001e0: 5a98 6c3e c678 0a3f a941 ec3e 7ea7 653f
000001f0: 848f 3d3e 0cb7 d33e 4dd3 30bd b8fa 9cbd
00000200: 27bc 593e f332 c83e 26a4 74be 8f60 76be
00000210: f171 f5be 7103 62be f478 5bbe ce4e 083f
00000220: 99dc 7f3f 7552 97be 1aec 163f 3b02 2fbc
00000230: 17b8 1f3f 914c 1a3f a61b b43e 800a 273e
00000240: 3014 f53e e57a f0be 9f38 bcbe be5a 9dbe
00000250: cb93 52be 86cf ae3e 8de8 febe a89f e53e
00000260: 01d2 8f3e 6a2b 5abe 8639 fbbb 4768 97be
00000270: 63ea 95be 1816 92bc 435a 053e 3e72 4d3e
00000280: a451 ca3e 95ea f1be aacb 5ebe 2f88 5bbe
00000290: 8df6 57be d0f7 afbd 293c 3fbe 93d5 673e
000002a0: 9176 12be 5785 3abe dbc0 733e 2b8b a1bd
000002b0: 7f7e 14bf b7bf ffbd 38ea 76be 0036 593e
000002c0: 947b af3e 74e1 0abe edf0 debd eca6 063f
000002d0: 4ef4 c6be 4d96 583e cde9 1e3f 074a 883e
000002e0: e8a8 a43e ec8f c43e fbf8 10be e793 ba3e
000002f0: 0042 8ebe 9a33 81be 061f ca3e c0ca dcbd
00000300: ca2d bfbd 2d89 b0be 6259 85be 35f8 2c3f
00000310: d5fa 4d3e cfc8 09bf 2ce0 bcbd 0bc5 09bf
00000320: edc5 09bf 8009 33bf 5fae 4d3e 664a 33bd
00000330: 513b 073e 89a4 04bd 48a3 563e eb64 5dbe
00000340: 04da 3a3f 338e cf3c e448 a1bd f2da ff3e
00000350: cf99 97bd 2927 d6bd 28ee b5be 765d 1fbe
00000360: db87 db3e eb28 db3e d5e0 d43e 1461 4c3f
00000370: ee82 b93d 3c12 d8bd 6c46 32be 234d c8bc
00000380: 2e8d b23e 982b c63d 27c5 09bf 6745 9fbe
00000390: d619 a4bd e7bc d8bd f814 83bb b2ed 803c
000003a0: eeb5 39be 54ad ee3d ed01 cc3e 3fd2 bb3d
000003b0: 604b 54be 8340 82be ad63 9e3d 2fa0 eb3e
000003c0: ae37 af3e 8b28 90be d9c4 7b3e aee5 39be
000003d0: 2606 a1bc 63e5 d6be f37d 19be bf9f ea3e
000003e0: 18a1 e53e a14a 013f 68c7 213f 8d04 9cbd
000003f0: 7f65 aa3e f9ff e33e d856 9abe 6b87 093f
-0.042501528 0.094099164 0.40046465 -0.17147358 0.20881984 0.38054293 0.258895 0.48333108
0.5584669 -0.16566373 0.31113333 -0.20745185 -0.2812509 0.44897947 -0.12724094 0.27473968
-0.2689682 -0.07365165 0.324115 -0.10826694 -0.2811733 -0.16886896 -0.28114787 -0.28112668
-0.7031766 0.31086755 -0.12073067 0.08346979 0.40691924 0.25763768 0.30968335 -0.23286137
-0.01820293 -0.021413663 0.429016 0.2677345 -0.004011482 -0.16067924 0.26434976 0.59082216
0.38524452 0.30200812 -0.17965701 0.056049466 -0.11518891 0.32656717 0.018410947 0.33100918
0.24777603 -0.45916435 -0.06972824 -0.13324226 0.011078991 -0.053076375 -0.08768495 -0.1943841
-0.079078294 0.4167182 0.30772486 -0.2741706 -0.3160868 0.25425497 0.35953036 0.46141753
0.8728144 0.30921808 0.2439548 0.12233493 0.53241354 0.19633941 0.42286214 -0.2635362
0.30552828 -0.37011325 -0.22624254 -0.43029413 0.42053583 0.7902288 0.44470632 0.5683457
-0.16398287 0.58197796 0.6725818 0.14207116 0.09078703 0.53944284 0.5907995 -0.21780533
0.33195382 -0.23146872 0.45540845 -0.3243587 0.056185693 0.33037868 -0.10565268 0.47071707
-0.22259206 0.55900896 0.25626218 0.28656447 0.13977306 0.622644 0.67471945 -0.2635569
-0.11003916 0.3311566 0.068479694 -0.034188565 -0.6403586 -0.1884655 0.5496169 0.4120332
0.47266254 0.7702435 -0.22738406 0.4750364 0.13340901 0.1618011 0.23991287 -0.14660782
0.23104993 0.54090536 0.46143845 0.897087 0.18511778 0.4135059 -0.043170262 -0.07665008
0.2126318 0.3910137 -0.23890743 -0.24060272 -0.47938493 -0.22071625 -0.21432859 0.53245246
0.9994598 -0.29555097 0.5895401 -0.010681684 0.62390274 0.6027308 0.35177344 0.16312599
0.47866964 -0.4696876 -0.36761948 -0.30733293 -0.20564191 0.34142703 -0.49786797 0.4484837
0.28089908 -0.21305624 -0.0076667694 -0.29571745 -0.29280385 -0.0178328 0.13022713 0.20063111
0.39515412 -0.47249284 -0.21757379 -0.21438669 -0.21090145 -0.08592188 -0.18675293 0.22640066
-0.14303042 -0.18214928 0.23804037 -0.07887872 -0.5800552 -0.124877386 -0.24112785 0.21212006
0.3427397 -0.13562566 -0.10885797 0.5259845 -0.38858265 0.21151085 0.620755 0.26618978
0.32160115 0.38391054 -0.14157479 0.36440966 -0.2778473 -0.2523468 0.39476794 -0.10780859
-0.093349054 -0.34479657 -0.26044756 0.67566234 0.20115216 -0.53822035 -0.09222445 -0.5381629
-0.53817636 -0.6993637 0.20086049 -0.043772124 0.13206221 -0.032383475 0.20960724 -0.21620528
0.72988915 0.02533636 -0.07875231 0.4997173 -0.074023835 -0.10456688 -0.3553326 -0.15562996
0.42877087 0.42804655 0.41577783 0.7983563 0.09058176 -0.10550353 -0.17409676 -0.024450844
0.34873337 0.096762836 -0.53816456 -0.31107637 -0.0801274 -0.10582905 -0.0040003024 0.015738342
-0.18135807 0.116541535 0.3984522 0.09170961 -0.20731878 -0.25439844 0.077338554 0.46020648
0.34222168 -0.28155932 0.2458681 -0.18154022 -0.019656252 -0.41971883 -0.14989452 0.45825002
0.44849467 0.505045 0.63194895 -0.076180555 0.3328056 0.4453123 -0.30144382 0.53722256

l1.bias f4 [8]
00000000: cfea 8f3e 7c57 3f3f 9c51 733f f4c8 093f
00000010: 54a4 563f 54ab 9e3e dbcd 553f b238 e33e
0.28108832 0.74742866 0.950464 0.53822255 0.83844495 0.30990088 0.83517236 0.44379193

l2.weight f4 [8, 8]
00000000: b21e adbd 526e 243f f1d1 2dbd dfc8 90bf
00000010: 46fb 70bf 5505 4c3f df8e 0f3f 54d2 593f
00000020: a743 51bf 0beb 983f dd1d b6be 8333 fbbe
00000030: 72d5 843f f0a3 e1be 6ced 473f 04c2 84bf
00000040: ba78 7e3f b95f 40be 723f 12bf 0279 ab3e
00000050: 04dd 163f a064 933f b635 083f c329 44be
00000060: 677a ab3d 6d25 c03e 1743 1a3f 5649 a3be
00000070: 8f05 3f3f 81e6 6f3d 5263 073f cedc a0bf
00000080: 6200 653e 75bf 8f3f 1914 b53f c05b b43f
00000090: 6232 bc3e ea1c 273f b661 bcbe c399 82bd
000000a0: d872 613f 166e 953f 72d9 d13e abbb a13f
000000b0: cbf1 153f aebc 3b3f de23 abbe 77e4 babe
000000c0: c184 42bf 25b9 61bd dfa7 3a3f 2bd7 5cbf
000000d0: 6349 a53f 544c 4ebf 0ccc a03f dc12 233f
000000e0: 116f 573f 9235 5dbe 14ec 6dbf 348b 703e
000000f0: eac8 193f 6479 913f c14a 443f 1755 ce3e
-0.0845312 0.64230835 -0.042436544 -1.1311301 -0.9413341 0.79695636 0.5607738 0.8508656
-0.81743854 1.194673 -0.3556966 -0.49062738 1.0377638 -0.44070387 0.7809665 -1.0371709
0.99402964 -0.18786515 -0.5712806 0.3349076 0.58930993 1.1515083 0.53206956 -0.19156556
0.08372956 0.37528554 0.6025862 -0.31891888 0.74617857 0.058569435 0.52885926 -1.2567384
0.22363427 1.1230303 1.4146758 1.40905 0.3675719 0.65278494 -0.36793298 -0.06376984
0.8806586 1.167422 0.4098621 1.2635397 0.5857207 0.7333478 -0.33425802 -0.3650243
-0.75983816 -0.05510821 0.729124 -0.8626582 1.2913021 -0.8058522 1.256227 0.6370065
0.8415385 -0.21602467 -0.9293835 0.23490602 0.60072196 1.136517 0.76676565 0.40299293

l2.bias f4 [8]
00000000: 870f b33e 2479 363e b68e d4be 5239 2cbe
00000010: 447c de3e 11eb 08be a30e 593f 5555 85be
0.34972784 0.17819649 -0.4151513 -0.16818741 0.43454182 -0.1337092 0.8478796 -0.26041666

l3.weight f4 [8, 8]
00000000: f6d4 4f3f 74ac 9b3e 99df 32bf 0fae 32bd
00000010: 5b6a 903c 2135 f33d e316 2cbf c906 48bf
00000020: 6953 88bf 4d9e bf3e 45d8 153e 7e3f 16be
00000030: 11ac 80bf 2ccb 94bf 991b 133f bef8 b83e
00000040: d9bf f33e 2b20 18bf ff56 3e3f 36ed 66bf
00000050: 0f32 9dbd 6da7 48bf bc4b 9abf f3a5 463f
00000060: 807f ffbe fe2b 37bf 1176 efbf 1eff f1be
00000070: bdb8 503f 4e73 013f f48b 67be 2627 90bf
00000080: f895 21bf 6fd0 083f f2eb b3bf 2806 413f
00000090: a9b9 873e 21a4 c2be 6026 de3e 7ca2 9ebf
000000a0: faff 66bf 8830 e53e 8e19 c83d ddb1 3cbe
000000b0: 6826 9dbe f642 e23d ae50 b7bd 2e65 143e
000000c0: 83ce aebf 3859 76bf c1f7 b03d 1893 233f
000000d0: c50b 3c3e 6008 fa3e 0653 9fbf 5626 703d
000000e0: fe4b 743f b334 39bf 95fb f3bf e2ee 90bf
000000f0: ed89 2b3e f880 babf 1b6e 903f db21 f1be
0.8118433 0.3040501 -0.6987243 -0.043623026 0.01762884 0.11875368 -0.6722242 -0.78135353
-1.0650455 0.3742546 0.14633282 -0.14672658 -1.005251 -1.1624503 0.57463986 0.36127275
0.47607306 -0.59424084 0.74351496 -0.90205705 -0.076755635 -0.7838047 -1.2054362 0.7759697
-0.49901962 -0.715515 -1.8707906 -0.4726495 0.8153189 0.50566566 -0.22611982 -1.1261947
-0.6311946 0.53443044 -1.405638 0.7540002 0.26508835 -0.38015845 0.43388653 -1.2393336
-0.9023434 0.4476359 0.09770499 -0.18427224 -0.30693364 0.11047928 -0.08950935 0.14491722
-1.3656772 -0.96229887 0.08641005 0.6389632 0.18363865 0.48834515 -1.2447212 0.05863031
0.95428455 -0.7234604 -1.9061152 -1.1322901 0.16751833 -1.4570608 1.1283602 -0.47096142

l3.bias f4 [8]
00000000: 11d9 05bf 2aad 81be 4706 a83e 36cb e53d
00000010: 5518 053e 8491 07bf 093e f0be 96e1 663f
-0.5228434 -0.25327426 0.3281729 0.112204 0.12997563 -0.52956414 -0.4692233 0.90187967
